the run_IDs are not ordered
==================================================
--------------------------------------------------
			run_ID=2
GPU is available Tesla K80 11 GB

Batch_size: 32
Train set: 11550 | Validation_set: 3850 | Test_set: 3850
Train_batches: 361 | Validation_batches: 361 | Test_batches: 121
Memory taken on GPU 0.0 GB
Memory taken on RAM 0.05 GB
19 seconds taken

myBert(
  (bert):
  (fc1): Linear(in_features=768000, out_features=10, bias=True)
  (dp1): Dropout(p=0.2, inplace=False)
  (fc2): Linear(in_features=10, out_features=5, bias=True)
  (dp2): Dropout(p=0.2, inplace=False)
  (fc3): Linear(in_features=5, out_features=1, bias=True)
)
Memory taken on GPU 0.692 GB
Memory taken on RAM 1.921 GB
9 seconds taken

Epoch: 1 Train Loss 0.698 Time taken: 1488.54 secs

==================================================
--------------------------------------------------
			run_ID=2
GPU is available Tesla K80 11 GB

Batch_size: 32
Old sets
Old batches
Memory taken on GPU 0.0 GB
Memory taken on RAM -0.574 GB
1 seconds taken

myBert(
  (bert):
  (fc1): Linear(in_features=768000, out_features=10, bias=True)
  (dp1): Dropout(p=0.2, inplace=False)
  (fc2): Linear(in_features=10, out_features=5, bias=True)
  (dp2): Dropout(p=0.2, inplace=False)
  (fc3): Linear(in_features=5, out_features=1, bias=True)
)
Memory taken on GPU 0.692 GB
Memory taken on RAM 2.006 GB
9 seconds taken

Epoch: 1 Train Loss 0.704 Time taken: 1486.82 secs
Epoch: 1 Validation Loss 0.696 Time taken: 477.85 secs
Epoch: 2 Train Loss 0.695 Time taken: 1484.82 secs
Epoch: 2 Validation Loss 0.695 Time taken: 475.41 secs
3924.915 secs

T\P		 0		 1
0		0014		0000		
1		0018		0000		
Accuracy 43.75
T\P		 0		 1
0		1942		0000		
1		1908		0000		
Accuracy 50.44155844155844
Time taken: 475.05 secs


==================================================
--------------------------------------------------
			run_ID=3
GPU is available Tesla K80 11 GB

Batch_size: 32
Train set: 11550 | Validation_set: 3850 | Test_set: 3850
Train_batches: 361 | Validation_batches: 361 | Test_batches: 121
Memory taken on GPU 0.0 GB
Memory taken on RAM 0.14 GB
21 seconds taken

myBert(
  (bert):
  (fc1): Linear(in_features=768000, out_features=2000, bias=True)
  (dp1): Dropout(p=0.2, inplace=False)
  (fc2): Linear(in_features=2000, out_features=500, bias=True)
  (dp2): Dropout(p=0.2, inplace=False)
  (fc3): Linear(in_features=500, out_features=1, bias=True)
)
Memory taken on GPU 6.389 GB
Memory taken on RAM 1.963 GB
52 seconds taken

Adam (
Parameter Group 0
    amsgrad: False
    betas: (0.9, 0.999)
    eps: 1e-08
    lr: 0.0001
    weight_decay: 0
)


======================================================================
----------------------------------------------------------------------
				run_ID=3
GPU is available Tesla K80 11 GB

Batch_size: 32
Old sets
Old batches
Memory taken on GPU 0.0 GB
Memory taken on RAM 0.868 GB
2 seconds taken

myBert(
  (bert):
  (fc1): Linear(in_features=768000, out_features=200, bias=True)
  (dp1): Dropout(p=0.2, inplace=False)
  (fc2): Linear(in_features=200, out_features=100, bias=True)
  (dp2): Dropout(p=0.2, inplace=False)
  (fc3): Linear(in_features=100, out_features=1, bias=True)
)
Memory taken on GPU 1.235 GB
Memory taken on RAM 1.999 GB
10 seconds taken

Adam (
Parameter Group 0
    amsgrad: False
    betas: (0.9, 0.999)
    eps: 1e-08
    lr: 0.0001
    weight_decay: 0
)

Epoch: 1 Train Loss 0.735 Time taken: 1516.95 secs
	Epoch: 1 Validation Loss 0.693 Time taken: 479.95 secs
Epoch: 2 Train Loss 0.693 Time taken: 1519.56 secs
…
    "train_ratio": 0.5,
    "val_ratio": 0.2,
    "max_len": 300,
    "data_source": "inshorts_full",
    "data_options": "asha_sentsim, inshorts_full, inshorts_400pairs",
    "architecture": "SequenceClassification",
    "arch_options": "SequenceClassification, fc1, fc2, fc3",
    "which_bert_embedding": "pooler_output",
    "bert_embedding_options": "cls, pooler_output",
    "my_datapath": "data/",
    "criterion": "BCE",
    "query_expansion": false,
    "embedding_size": 768
}
myBert(
  (model): XLMRoberta xlm-roberta-base )         )
              (output): RobertaSelfOutput(
                (dense): Linear(in_features=768, out_features=768, bias=True)
                (LayerNorm): LayerNorm((768,), eps=1e-05, elementwise_affine=True)
                (dropout): Dropout(p=0.1, inplace=False)
              )
            )
            (intermediate): RobertaIntermediate(
              (dense): Linear(in_features=768, out_features=3072, bias=True)
            )
            (output): RobertaOutput(
              (dense): Linear(in_features=3072, out_features=768, bias=True)
              (LayerNorm): LayerNorm((768,), eps=1e-05, elementwise_affine=True)
              (dropout): Dropout(p=0.1, inplace=False)
            )
          )
        )
      )
    )
    (classifier): RobertaClassificationHead(
      (dense): Linear(in_features=768, out_features=768, bias=True)
      (dropout): Dropout(p=0.1, inplace=False)
      (out_proj): Linear(in_features=768, out_features=1, bias=True)
    )
  )
)
Memory taken on GPU 1.036 GB
Memory taken on RAM 5.367 GB
22 seconds taken

AdamW (
Parameter Group 0
    betas: (0.9, 0.999)
    correct_bias: True
    eps: 1e-06
    lr: 1e-05
    weight_decay: 0.0
)


Epoch: 1 Train Loss 0.077 Time taken: 596.61 secs

    Epoch: 1 Validation Loss 0.018 Time taken: 22.97 secs| Accuracy 97.951

Epoch: 2 Train Loss 0.031 Time taken: 594.78 secs
…
    "include_asha_data": "after inshorts data",
    "data_options": "asha_sentsim, inshorts_full, inshorts_400pairs",
    "architecture": "fc3",
    "arch_options": "SequenceClassification, fc1, fc2, fc3",
    "which_bert_embedding": "pooler_output",
    "bert_embedding_options": "cls, pooler_output",
    "my_datapath": "data/",
    "criterion": "BCE",
    "query_expansion": false,
    "inflate_negative_n_times": 0,
    "include_curated_negatives": false,
    "embedding_size": 768
}
myBert(
  (model): BertModel( bert-base-multilingual-cased )ce=False)
            )
          )
          (intermediate): BertIntermediate(
            (dense): Linear(in_features=768, out_features=3072, bias=True)
            (intermediate_act_fn): GELUActivation()
          )
          (output): BertOutput(
            (dense): Linear(in_features=3072, out_features=768, bias=True)
            (LayerNorm): LayerNorm((768,), eps=1e-12, elementwise_affine=True)
            (dropout): Dropout(p=0.1, inplace=False)
          )
        )
      )
    )
    (pooler): BertPooler(
      (dense): Linear(in_features=768, out_features=768, bias=True)
      (activation): Tanh()
    )
  )
  (fc1): Linear(in_features=768, out_features=400, bias=True)
  (activation1): ReLU()
  (fc2): Linear(in_features=400, out_features=100, bias=True)
  (activation2): ReLU()
  (fc3): Linear(in_features=100, out_features=1, bias=True)
  (activation3): Sigmoid()
  (criterion): BCELoss()
)
Memory taken on GPU 0.665 GB
Memory taken on RAM 3.214 GB
17 seconds taken

AdamW (
Parameter Group 0
    betas: (0.9, 0.999)
    correct_bias: True
    eps: 1e-06
    lr: 1e-05
    weight_decay: 0.0
)


Epoch: 1 Train Loss 0.146 Time taken: 1344.74 secs

    Epoch: 1 Validation Loss 0.063 Time taken: 55.5 secs| Accuracy 98.135
…
